…
-dd74564e0fc0"},"source":["#!cp -r /content/VOC_YOLO /content/voc/\n","!cp /content/drive/My\\ Drive/Yolo/train/weights/darknet-yolov3_last.weights /content\n","!chmod -R 0777 /content/drive/My\\ Drive/Yolo/train\n","!/content/darknet detector train /content/YOLOv3/darknet.data /content/YOLOv3/darknet-yolov3.cfg /content/darknet-yolov3_last.weights > /content/drive/My\\ Drive/Yolo/train/train.log\n","print('Fim da celula 4: ',datetime.datetime.now())"],"execution_count":null,"outputs":[{"output_type":"stream","text":["layer     filters    size              input                output\n","   0 conv     32  3 x 3 / 1   416 x 416 x   3   ->   416 x 416 x  32 0.299 BF\n","   1 conv     64  3 x 3 / 2   416 x 416 x  32   ->   208 x 208 x  64 1.595 BF\n","   2 conv     32  1 x 1 / 1   208 x 208 x  64   ->   208 x 208 x  32 0.177 BF\n","   3 conv     64  3 x 3 / 1   208 x 208 x  32   ->   208 x 208 x  64 1.595 BF\n","   4 Shortcut Layer: 1\n","   5 conv    128  3 x 3 / 2   208 x 208 x  64   ->   104 x 104 x 128 1.595 BF\n","   6 conv     64  1 x 1 / 1   104 x 104 x 128   ->   104 x 104 x  64 0.177 BF\n","   7 conv    128  3 x 3 / 1   104 x 104 x  64   ->   104 x 104 x 128 1.595 BF\n","   8 Shortcut Layer: 5\n","   9 conv     64  1 x 1 / 1   104 x 104 x 128   ->   104 x 104 x  64 0.177 BF\n","  10 conv    128  3 x 3 / 1   104 x 104 x  64   ->   104 x 104 x 128 1.595 BF\n","  11 Shortcut Layer: 8\n","  12 conv    256  3 x 3 / 2   104 x 104 x 128   ->    52 x  52 x 256 1.595 BF\n","  13 conv    128  1 x 1 / 1    52 x  52 x 256   ->    52 x  52 x 128 0.177 BF\n","  14 conv    256  3 x 3 / 1    52 x  52 x 128   ->    52 x  52 x 256 1.595 BF\n","  15 Shortcut Layer: 12\n","  16 conv    128  1 x 1 / 1    52 x  52 x 256   ->    52 x  52 x 128 0.177 BF\n","  17 conv    256  3 x 3 / 1    52 x  52 x 128   ->    52 x  52 x 256 1.595 BF\n","  18 Shortcut Layer: 15\n","  19 conv    128  1 x 1 / 1    52 x  52 x 256   ->    52 x  52 x 128 0.177 BF\n","  20 conv    256  3 x 3 / 1    52 x  52 x 128   ->    52 x  52 x 256 1.595 BF\n","  21 Shortcut Layer: 18\n","  22 conv    128  1 x 1 / 1    52 x  52 x 256   ->    52 x  52 x 128 0.177 BF\n","  23 conv    256  3 x 3 / 1    52 x  52 x 128   ->    52 x  52 x 256 1.595 BF\n","  24 Shortcut Layer: 21\n","  25 conv    128  1 x 1 / 1    52 x  52 x 256   ->    52 x  52 x 128 0.177 BF\n","  26 conv    256  3 x 3 / 1    52 x  52 x 128   ->    52 x  52 x 256 1.595 BF\n","  27 Shortcut Layer: 24\n","  28 conv    128  1 x 1 / 1    52 x  52 x 256   ->    52 x  52 x 128 0.177 BF\n","  29 conv    256  3 x 3 / 1    52 x  52 x 128   ->    52 x  52 x 256 1.595 BF\n","  30 Shortcut Layer: 27\n","  31 conv    128  1 x 1 / 1    52 x  52 x 256   ->    52 x  52 x 128 0.177 BF\n","  32 conv    256  3 x 3 / 1    52 x  52 x 128   ->    52 x  52 x 256 1.595 BF\n","  33 Shortcut Layer: 30\n","  34 conv    128  1 x 1 / 1    52 x  52 x 256   ->    52 x  52 x 128 0.177 BF\n","  35 conv    256  3 x 3 / 1    52 x  52 x 128   ->    52 x  52 x 256 1.595 BF\n","  36 Shortcut Layer: 33\n","  37 conv    512  3 x 3 / 2    52 x  52 x 256   ->    26 x  26 x 512 1.595 BF\n","  38 conv    256  1 x 1 / 1    26 x  26 x 512   ->    26 x  26 x 256 0.177 BF\n","  39 conv    512  3 x 3 / 1    26 x  26 x 256   ->    26 x  26 x 512 1.595 BF\n","  40 Shortcut Layer: 37\n","  41 conv    256  1 x 1 / 1    26 x  26 x 512   ->    26 x  26 x 256 0.177 BF\n","  42 conv    512  3 x 3 / 1    26 x  26 x 256   ->    26 x  26 x 512 1.595 BF\n","  43 Shortcut Layer: 40\n","  44 conv    256  1 x 1 / 1    26 x  26 x 512   ->    26 x  26 x 256 0.177 BF\n","  45 conv    512  3 x 3 / 1    26 x  26 x 256   ->    26 x  26 x 512 1.595 BF\n","  46 Shortcut Layer: 43\n","  47 conv    256  1 x 1 / 1    26 x  26 x 512   ->    26 x  26 x 256 0.177 BF\n","  48 conv    512  3 x 3 / 1    26 x  26 x 256   ->    26 x  26 x 512 1.595 BF\n","  49 Shortcut Layer: 46\n","  50 conv    256  1 x 1 / 1    26 x  26 x 512   ->    26 x  26 x 256 0.177 BF\n","  51 conv    512  3 x 3 / 1    26 x  26 x 256   ->    26 x  26 x 512 1.595 BF\n","  52 Shortcut Layer: 49\n","  53 conv    256  1 x 1 / 1    26 x  26 x 512   ->    26 x  26 x 256 0.177 BF\n","  54 conv    512  3 x 3 / 1    26 x  26 x 256   ->    26 x  26 x 512 1.595 BF\n","  55 Shortcut Layer: 52\n","  56 conv    256  1 x 1 / 1    26 x  26 x 512   ->    26 x  26 x 256 0.177 BF\n","  57 conv    512  3 x 3 / 1    26 x  26 x 256   ->    26 x  26 x 512 1.595 BF\n","  58 Shortcut Layer: 55\n","  59 conv    256  1 x 1 / 1    26 x  26 x 512   ->    26 x  26 x 256 0.177 BF\n","  60 conv    512  3 x 3 / 1    26 x  26 x 256   ->    26 x  26 x 512 1.595 BF\n","  61 Shortcut Layer: 58\n","  62 conv   1024  3 x 3 / 2    26 x  26 x 512   ->    13 x  13 x1024 1.595 BF\n","  63 conv    512  1 x 1 / 1    13 x  13 x1024   ->    13 x  13 x 512 0.177 BF\n","  64 conv   1024  3 x 3 / 1    13 x  13 x 512   ->    13 x  13 x1024 1.595 BF\n","  65 Shortcut Layer: 62\n","  66 conv    512  1 x 1 / 1    13 x  13 x1024   ->    13 x  13 x 512 0.177 BF\n","  67 conv   1024  3 x 3 / 1    13 x  13 x 512   ->    13 x  13 x1024 1.595 BF\n","  68 Shortcut Layer: 65\n","  69 conv    512  1 x 1 / 1    13 x  13 x1024   ->    13 x  13 x 512 0.177 BF\n","  70 conv   1024  3 x 3 / 1    13 x  13 x 512   ->    13 x  13 x1024 1.595 BF\n","  71 Shortcut Layer: 68\n","  72 conv    512  1 x 1 / 1    13 x  13 x1024   ->    13 x  13 x 512 0.177 BF\n","  73 conv   1024  3 x 3 / 1    13 x  13 x 512   ->    13 x  13 x1024 1.595 BF\n","  74 Shortcut Layer: 71\n","  75 conv    512  1 x 1 / 1    13 x  13 x1024   ->    13 x  13 x 512 0.177 BF\n","  76 conv   1024  3 x 3 / 1    13 x  13 x 512   ->    13 x  13 x1024 1.595 BF\n","  77 conv    512  1 x 1 / 1    13 x  13 x1024   ->    13 x  13 x 512 0.177 BF\n","  78 conv   1024  3 x 3 / 1    13 x  13 x 512   ->    13 x  13 x1024 1.595 BF\n","  79 conv    512  1 x 1 / 1    13 x  13 x1024   ->    13 x  13 x 512 0.177 BF\n","  80 conv   1024  3 x 3 / 1    13 x  13 x 512   ->    13 x  13 x1024 1.595 BF\n","  81 conv     45  1 x 1 / 1    13 x  13 x1024   ->    13 x  13 x  45 0.016 BF\n","  82 yolo\n","  83 route  79\n","  84 conv    256  1 x 1 / 1    13 x  13 x 512   ->    13 x  13 x 256 0.044 BF\n","  85 upsample            2x    13 x  13 x 256   ->    26 x  26 x 256\n","  86 route  85 61\n","  87 conv    256  1 x 1 / 1    26 x  26 x 768   ->    26 x  26 x 256 0.266 BF\n","  88 conv    512  3 x 3 / 1    26 x  26 x 256   ->    26 x  26 x 512 1.595 BF\n","  89 conv    256  1 x 1 / 1    26 x  26 x 512   ->    26 x  26 x 256 0.177 BF\n","  90 conv    512  3 x 3 / 1    26 x  26 x 256   ->    26 x  26 x 512 1.595 BF\n","  91 conv    256  1 x 1 / 1    26 x  26 x 512   ->    26 x  26 x 256 0.177 BF\n","  92 conv    512  3 x 3 / 1    26 x  26 x 256   ->    26 x  26 x 512 1.595 BF\n","  93 conv     45  1 x 1 / 1    26 x  26 x 512   ->    26 x  26 x  45 0.031 BF\n","  94 yolo\n","  95 route  91\n","  96 conv    128  1 x 1 / 1    26 x  26 x 256   ->    26 x  26 x 128 0.044 BF\n","  97 upsample            4x    26 x  26 x 128   ->   104 x 104 x 128\n","  98 route  97 11\n","  99 conv    128  1 x 1 / 1   104 x 104 x 256   ->   104 x 104 x 128 0.709 BF\n"," 100 conv    256  3 x 3 / 1   104 x 104 x 128   ->   104 x 104 x 256 6.380 BF\n"," 101 conv    128  1 x 1 / 1   104 x 104 x 256   ->   104 x 104 x 128 0.709 BF\n"," 102 conv    256  3 x 3 / 1   104 x 104 x 128   ->   104 x 104 x 256 6.380 BF\n"," 103 conv    128  1 x 1 / 1   104 x 104 x 256   ->   104 x 104 x 128 0.709 BF\n"," 104 conv    256  3 x 3 / 1   104 x 104 x 128   ->   104 x 104 x 256 6.380 BF\n"," 105 conv     45  1 x 1 / 1   104 x 104 x 256   ->   104 x 104 x  45 0.249 BF\n"," 106 yolo\n","Total BFLOPS 81.402 \n"," Allocate additional workspace_size = 52.43 MB \n","Loading weights from /content/darknet-yolov3_last.weights...Done!\n","Saving weights to /content/drive/My Drive/Yolo/train/weights/darknet-yolov3_last.weights\n","Saving weights to /content/drive/My Drive/Yolo/train/weights/darknet-yolov3_2000.weights\n"
…
